…
     "base_uri": "https://localhost:8080/",
     "height": 1000
    },
    "colab_type": "code",
    "id": "P-JNSH4XwrZY",
    "outputId": "3961b9cf-35a7-43ea-d7ea-97427ba42746"
   },
   "outputs": [
    {
     "name": "stdout",
     "output_type": "stream",
     "text": [
      "__________________________________________________________________________________________________\n",
      "Layer (type)                    Output Shape         Param #     Connected to                     \n",
      "==================================================================================================\n",
      "input_2 (InputLayer)            (None, 224, 224, 3)  0                                            \n",
      "__________________________________________________________________________________________________\n",
      "conv1_pad (ZeroPadding2D)       (None, 230, 230, 3)  0           input_2[0][0]                    \n",
      "__________________________________________________________________________________________________\n",
      "conv1 (Conv2D)                  (None, 112, 112, 64) 9472        conv1_pad[0][0]                  \n",
      "__________________________________________________________________________________________________\n",
      "bn_conv1 (BatchNormalization)   (None, 112, 112, 64) 256         conv1[0][0]                      \n",
      "__________________________________________________________________________________________________\n",
      "activation_50 (Activation)      (None, 112, 112, 64) 0           bn_conv1[0][0]                   \n",
      "__________________________________________________________________________________________________\n",
      "pool1_pad (ZeroPadding2D)       (None, 114, 114, 64) 0           activation_50[0][0]              \n",
      "__________________________________________________________________________________________________\n",
      "max_pooling2d_2 (MaxPooling2D)  (None, 56, 56, 64)   0           pool1_pad[0][0]                  \n",
      "__________________________________________________________________________________________________\n",
      "res2a_branch2a (Conv2D)         (None, 56, 56, 64)   4160        max_pooling2d_2[0][0]            \n",
      "__________________________________________________________________________________________________\n",
      "bn2a_branch2a (BatchNormalizati (None, 56, 56, 64)   256         res2a_branch2a[0][0]             \n",
      "__________________________________________________________________________________________________\n",
      "activation_51 (Activation)      (None, 56, 56, 64)   0           bn2a_branch2a[0][0]              \n",
      "__________________________________________________________________________________________________\n",
      "res2a_branch2b (Conv2D)         (None, 56, 56, 64)   36928       activation_51[0][0]              \n",
      "__________________________________________________________________________________________________\n",
      "bn2a_branch2b (BatchNormalizati (None, 56, 56, 64)   256         res2a_branch2b[0][0]             \n",
      "__________________________________________________________________________________________________\n",
      "activation_52 (Activation)      (None, 56, 56, 64)   0           bn2a_branch2b[0][0]              \n",
      "__________________________________________________________________________________________________\n",
      "res2a_branch2c (Conv2D)         (None, 56, 56, 256)  16640       activation_52[0][0]              \n",
      "__________________________________________________________________________________________________\n",
      "res2a_branch1 (Conv2D)          (None, 56, 56, 256)  16640       max_pooling2d_2[0][0]            \n",
      "__________________________________________________________________________________________________\n",
      "bn2a_branch2c (BatchNormalizati (None, 56, 56, 256)  1024        res2a_branch2c[0][0]             \n",
      "__________________________________________________________________________________________________\n",
      "bn2a_branch1 (BatchNormalizatio (None, 56, 56, 256)  1024        res2a_branch1[0][0]              \n",
      "__________________________________________________________________________________________________\n",
      "add_17 (Add)                    (None, 56, 56, 256)  0           bn2a_branch2c[0][0]              \n",
      "                                                                 bn2a_branch1[0][0]               \n",
      "__________________________________________________________________________________________________\n",
      "activation_53 (Activation)      (None, 56, 56, 256)  0           add_17[0][0]                     \n",
      "__________________________________________________________________________________________________\n",
      "res2b_branch2a (Conv2D)         (None, 56, 56, 64)   16448       activation_53[0][0]              \n",
      "__________________________________________________________________________________________________\n",
      "bn2b_branch2a (BatchNormalizati (None, 56, 56, 64)   256         res2b_branch2a[0][0]             \n",
      "__________________________________________________________________________________________________\n",
      "activation_54 (Activation)      (None, 56, 56, 64)   0           bn2b_branch2a[0][0]              \n",
      "__________________________________________________________________________________________________\n",
      "res2b_branch2b (Conv2D)         (None, 56, 56, 64)   36928       activation_54[0][0]              \n",
      "__________________________________________________________________________________________________\n",
      "bn2b_branch2b (BatchNormalizati (None, 56, 56, 64)   256         res2b_branch2b[0][0]             \n",
      "__________________________________________________________________________________________________\n",
      "activation_55 (Activation)      (None, 56, 56, 64)   0           bn2b_branch2b[0][0]              \n",
      "__________________________________________________________________________________________________\n",
      "res2b_branch2c (Conv2D)         (None, 56, 56, 256)  16640       activation_55[0][0]              \n",
      "__________________________________________________________________________________________________\n",
      "bn2b_branch2c (BatchNormalizati (None, 56, 56, 256)  1024        res2b_branch2c[0][0]             \n",
      "__________________________________________________________________________________________________\n",
      "add_18 (Add)                    (None, 56, 56, 256)  0           bn2b_branch2c[0][0]              \n",
      "                                                                 activation_53[0][0]              \n",
      "__________________________________________________________________________________________________\n",
      "activation_56 (Activation)      (None, 56, 56, 256)  0           add_18[0][0]                     \n",
      "__________________________________________________________________________________________________\n",
      "res2c_branch2a (Conv2D)         (None, 56, 56, 64)   16448       activation_56[0][0]              \n",
      "__________________________________________________________________________________________________\n",
      "bn2c_branch2a (BatchNormalizati (None, 56, 56, 64)   256         res2c_branch2a[0][0]             \n",
      "__________________________________________________________________________________________________\n",
      "activation_57 (Activation)      (None, 56, 56, 64)   0           bn2c_branch2a[0][0]              \n",
      "__________________________________________________________________________________________________\n",
      "res2c_branch2b (Conv2D)         (None, 56, 56, 64)   36928       activation_57[0][0]              \n",
      "__________________________________________________________________________________________________\n",
      "bn2c_branch2b (BatchNormalizati (None, 56, 56, 64)   256         res2c_branch2b[0][0]             \n",
      "__________________________________________________________________________________________________\n",
      "activation_58 (Activation)      (None, 56, 56, 64)   0           bn2c_branch2b[0][0]              \n",
      "__________________________________________________________________________________________________\n",
      "res2c_branch2c (Conv2D)         (None, 56, 56, 256)  16640       activation_58[0][0]              \n",
      "__________________________________________________________________________________________________\n",
      "bn2c_branch2c (BatchNormalizati (None, 56, 56, 256)  1024        res2c_branch2c[0][0]             \n",
      "__________________________________________________________________________________________________\n",
      "add_19 (Add)                    (None, 56, 56, 256)  0           bn2c_branch2c[0][0]              \n",
      "                                                                 activation_56[0][0]              \n",
      "__________________________________________________________________________________________________\n",
      "activation_59 (Activation)      (None, 56, 56, 256)  0           add_19[0][0]                     \n",
      "__________________________________________________________________________________________________\n",
      "res3a_branch2a (Conv2D)         (None, 28, 28, 128)  32896       activation_59[0][0]              \n",
      "__________________________________________________________________________________________________\n",
      "bn3a_branch2a (BatchNormalizati (None, 28, 28, 128)  512         res3a_branch2a[0][0]             \n",
      "__________________________________________________________________________________________________\n",
      "activation_60 (Activation)      (None, 28, 28, 128)  0           bn3a_branch2a[0][0]              \n",
      "__________________________________________________________________________________________________\n",
      "res3a_branch2b (Conv2D)         (None, 28, 28, 128)  147584      activation_60[0][0]              \n",
      "__________________________________________________________________________________________________\n",
      "bn3a_branch2b (BatchNormalizati (None, 28, 28, 128)  512         res3a_branch2b[0][0]             \n",
      "__________________________________________________________________________________________________\n",
      "activation_61 (Activation)      (None, 28, 28, 128)  0           bn3a_branch2b[0][0]              \n",
      "__________________________________________________________________________________________________\n",
      "res3a_branch2c (Conv2D)         (None, 28, 28, 512)  66048       activation_61[0][0]              \n",
      "__________________________________________________________________________________________________\n",
      "res3a_branch1 (Conv2D)          (None, 28, 28, 512)  131584      activation_59[0][0]              \n",
      "__________________________________________________________________________________________________\n",
      "bn3a_branch2c (BatchNormalizati (None, 28, 28, 512)  2048        res3a_branch2c[0][0]             \n",
      "__________________________________________________________________________________________________\n",
      "bn3a_branch1 (BatchNormalizatio (None, 28, 28, 512)  2048        res3a_branch1[0][0]              \n",
      "__________________________________________________________________________________________________\n",
      "add_20 (Add)                    (None, 28, 28, 512)  0           bn3a_branch2c[0][0]              \n",
      "                                                                 bn3a_branch1[0][0]               \n",
      "__________________________________________________________________________________________________\n",
      "activation_62 (Activation)      (None, 28, 28, 512)  0           add_20[0][0]                     \n",
      "__________________________________________________________________________________________________\n",
      "res3b_branch2a (Conv2D)         (None, 28, 28, 128)  65664       activation_62[0][0]              \n",
      "__________________________________________________________________________________________________\n",
      "bn3b_branch2a (BatchNormalizati (None, 28, 28, 128)  512         res3b_branch2a[0][0]             \n",
      "__________________________________________________________________________________________________\n",
      "activation_63 (Activation)      (None, 28, 28, 128)  0           bn3b_branch2a[0][0]              \n",
      "__________________________________________________________________________________________________\n",
      "res3b_branch2b (Conv2D)         (None, 28, 28, 128)  147584      activation_63[0][0]              \n",
      "__________________________________________________________________________________________________\n",
      "bn3b_branch2b (BatchNormalizati (None, 28, 28, 128)  512         res3b_branch2b[0][0]             \n",
      "__________________________________________________________________________________________________\n",
      "activation_64 (Activation)      (None, 28, 28, 128)  0           bn3b_branch2b[0][0]              \n",
      "__________________________________________________________________________________________________\n",
      "res3b_branch2c (Conv2D)         (None, 28, 28, 512)  66048       activation_64[0][0]              \n",
      "__________________________________________________________________________________________________\n",
      "bn3b_branch2c (BatchNormalizati (None, 28, 28, 512)  2048        res3b_branch2c[0][0]             \n",
      "__________________________________________________________________________________________________\n",
      "add_21 (Add)                    (None, 28, 28, 512)  0           bn3b_branch2c[0][0]              \n",
      "                                                                 activation_62[0][0]              \n",
      "__________________________________________________________________________________________________\n",
      "activation_65 (Activation)      (None, 28, 28, 512)  0           add_21[0][0]                     \n",
      "__________________________________________________________________________________________________\n",
      "res3c_branch2a (Conv2D)         (None, 28, 28, 128)  65664       activation_65[0][0]              \n",
      "__________________________________________________________________________________________________\n",
      "bn3c_branch2a (BatchNormalizati (None, 28, 28, 128)  512         res3c_branch2a[0][0]             \n",
      "__________________________________________________________________________________________________\n",
      "activation_66 (Activation)      (None, 28, 28, 128)  0           bn3c_branch2a[0][0]              \n",
      "__________________________________________________________________________________________________\n",
      "res3c_branch2b (Conv2D)         (None, 28, 28, 128)  147584      activation_66[0][0]              \n",
      "__________________________________________________________________________________________________\n",
      "bn3c_branch2b (BatchNormalizati (None, 28, 28, 128)  512         res3c_branch2b[0][0]             \n",
      "__________________________________________________________________________________________________\n",
      "activation_67 (Activation)      (None, 28, 28, 128)  0           bn3c_branch2b[0][0]              \n",
      "__________________________________________________________________________________________________\n",
      "res3c_branch2c (Conv2D)         (None, 28, 28, 512)  66048       activation_67[0][0]              \n",
      "__________________________________________________________________________________________________\n",
      "bn3c_branch2c (BatchNormalizati (None, 28, 28, 512)  2048        res3c_branch2c[0][0]             \n",
      "__________________________________________________________________________________________________\n",
      "add_22 (Add)                    (None, 28, 28, 512)  0           bn3c_branch2c[0][0]              \n",
      "                                                                 activation_65[0][0]              \n",
      "__________________________________________________________________________________________________\n",
      "activation_68 (Activation)      (None, 28, 28, 512)  0           add_22[0][0]                     \n",
      "__________________________________________________________________________________________________\n",
      "res3d_branch2a (Conv2D)         (None, 28, 28, 128)  65664       activation_68[0][0]              \n",
      "__________________________________________________________________________________________________\n",
      "bn3d_branch2a (BatchNormalizati (None, 28, 28, 128)  512         res3d_branch2a[0][0]             \n",
      "__________________________________________________________________________________________________\n",
      "activation_69 (Activation)      (None, 28, 28, 128)  0           bn3d_branch2a[0][0]              \n",
      "__________________________________________________________________________________________________\n",
      "res3d_branch2b (Conv2D)         (None, 28, 28, 128)  147584      activation_69[0][0]              \n",
      "__________________________________________________________________________________________________\n",
      "bn3d_branch2b (BatchNormalizati (None, 28, 28, 128)  512         res3d_branch2b[0][0]             \n",
      "__________________________________________________________________________________________________\n",
      "activation_70 (Activation)      (None, 28, 28, 128)  0           bn3d_branch2b[0][0]              \n",
      "__________________________________________________________________________________________________\n",
      "res3d_branch2c (Conv2D)         (None, 28, 28, 512)  66048       activation_70[0][0]              \n",
      "__________________________________________________________________________________________________\n",
      "bn3d_branch2c (BatchNormalizati (None, 28, 28, 512)  2048        res3d_branch2c[0][0]             \n",
      "__________________________________________________________________________________________________\n",
      "add_23 (Add)                    (None, 28, 28, 512)  0           bn3d_branch2c[0][0]              \n",
      "                                                                 activation_68[0][0]              \n",
      "__________________________________________________________________________________________________\n",
      "activation_71 (Activation)      (None, 28, 28, 512)  0           add_23[0][0]                     \n",
      "__________________________________________________________________________________________________\n",
      "res4a_branch2a (Conv2D)         (None, 14, 14, 256)  131328      activation_71[0][0]              \n",
      "__________________________________________________________________________________________________\n",
      "bn4a_branch2a (BatchNormalizati (None, 14, 14, 256)  1024        res4a_branch2a[0][0]             \n",
      "__________________________________________________________________________________________________\n",
      "activation_72 (Activation)      (None, 14, 14, 256)  0           bn4a_branch2a[0][0]              \n",
      "__________________________________________________________________________________________________\n",
      "res4a_branch2b (Conv2D)         (None, 14, 14, 256)  590080      activation_72[0][0]              \n",
      "__________________________________________________________________________________________________\n",
      "bn4a_branch2b (BatchNormalizati (None, 14, 14, 256)  1024        res4a_branch2b[0][0]             \n",
      "__________________________________________________________________________________________________\n",
      "activation_73 (Activation)      (None, 14, 14, 256)  0           bn4a_branch2b[0][0]              \n",
      "__________________________________________________________________________________________________\n",
      "res4a_branch2c (Conv2D)         (None, 14, 14, 1024) 263168      activation_73[0][0]              \n",
      "__________________________________________________________________________________________________\n",
      "res4a_branch1 (Conv2D)          (None, 14, 14, 1024) 525312      activation_71[0][0]              \n",
      "__________________________________________________________________________________________________\n",
      "bn4a_branch2c (BatchNormalizati (None, 14, 14, 1024) 4096        res4a_branch2c[0][0]             \n",
      "__________________________________________________________________________________________________\n",
      "bn4a_branch1 (BatchNormalizatio (None, 14, 14, 1024) 4096        res4a_branch1[0][0]              \n",
      "__________________________________________________________________________________________________\n",
      "add_24 (Add)                    (None, 14, 14, 1024) 0           bn4a_branch2c[0][0]              \n",
      "                                                                 bn4a_branch1[0][0]               \n",
      "__________________________________________________________________________________________________\n",
      "activation_74 (Activation)      (None, 14, 14, 1024) 0           add_24[0][0]                     \n",
      "__________________________________________________________________________________________________\n",
      "res4b_branch2a (Conv2D)         (None, 14, 14, 256)  262400      activation_74[0][0]              \n",
      "__________________________________________________________________________________________________\n",
      "bn4b_branch2a (BatchNormalizati (None, 14, 14, 256)  1024        res4b_branch2a[0][0]             \n",
      "__________________________________________________________________________________________________\n",
      "activation_75 (Activation)      (None, 14, 14, 256)  0           bn4b_branch2a[0][0]              \n",
      "__________________________________________________________________________________________________\n",
      "res4b_branch2b (Conv2D)         (None, 14, 14, 256)  590080      activation_75[0][0]              \n",
      "__________________________________________________________________________________________________\n",
      "bn4b_branch2b (BatchNormalizati (None, 14, 14, 256)  1024        res4b_branch2b[0][0]             \n",
      "__________________________________________________________________________________________________\n",
      "activation_76 (Activation)      (None, 14, 14, 256)  0           bn4b_branch2b[0][0]              \n",
      "__________________________________________________________________________________________________\n",
      "res4b_branch2c (Conv2D)         (None, 14, 14, 1024) 263168      activation_76[0][0]              \n",
      "__________________________________________________________________________________________________\n",
      "bn4b_branch2c (BatchNormalizati (None, 14, 14, 1024) 4096        res4b_branch2c[0][0]             \n",
      "__________________________________________________________________________________________________\n",
      "add_25 (Add)                    (None, 14, 14, 1024) 0           bn4b_branch2c[0][0]              \n",
      "                                                                 activation_74[0][0]              \n",
      "__________________________________________________________________________________________________\n",
      "activation_77 (Activation)      (None, 14, 14, 1024) 0           add_25[0][0]                     \n",
      "__________________________________________________________________________________________________\n",
      "res4c_branch2a (Conv2D)         (None, 14, 14, 256)  262400      activation_77[0][0]              \n",
      "__________________________________________________________________________________________________\n",
      "bn4c_branch2a (BatchNormalizati (None, 14, 14, 256)  1024        res4c_branch2a[0][0]             \n",
      "__________________________________________________________________________________________________\n",
      "activation_78 (Activation)      (None, 14, 14, 256)  0           bn4c_branch2a[0][0]              \n",
      "__________________________________________________________________________________________________\n",
      "res4c_branch2b (Conv2D)         (None, 14, 14, 256)  590080      activation_78[0][0]              \n",
      "__________________________________________________________________________________________________\n",
      "bn4c_branch2b (BatchNormalizati (None, 14, 14, 256)  1024        res4c_branch2b[0][0]             \n",
      "__________________________________________________________________________________________________\n",
      "activation_79 (Activation)      (None, 14, 14, 256)  0           bn4c_branch2b[0][0]              \n",
      "__________________________________________________________________________________________________\n",
      "res4c_branch2c (Conv2D)         (None, 14, 14, 1024) 263168      activation_79[0][0]              \n",
      "__________________________________________________________________________________________________\n",
      "bn4c_branch2c (BatchNormalizati (None, 14, 14, 1024) 4096        res4c_branch2c[0][0]             \n",
      "__________________________________________________________________________________________________\n",
      "add_26 (Add)                    (None, 14, 14, 1024) 0           bn4c_branch2c[0][0]              \n",
      "                                                                 activation_77[0][0]              \n",
      "__________________________________________________________________________________________________\n",
      "activation_80 (Activation)      (None, 14, 14, 1024) 0           add_26[0][0]                     \n",
      "__________________________________________________________________________________________________\n",
      "res4d_branch2a (Conv2D)         (None, 14, 14, 256)  262400      activation_80[0][0]              \n",
      "__________________________________________________________________________________________________\n",
      "bn4d_branch2a (BatchNormalizati (None, 14, 14, 256)  1024        res4d_branch2a[0][0]             \n",
      "__________________________________________________________________________________________________\n",
      "activation_81 (Activation)      (None, 14, 14, 256)  0           bn4d_branch2a[0][0]              \n",
      "__________________________________________________________________________________________________\n",
      "res4d_branch2b (Conv2D)         (None, 14, 14, 256)  590080      activation_81[0][0]              \n",
      "__________________________________________________________________________________________________\n",
      "bn4d_branch2b (BatchNormalizati (None, 14, 14, 256)  1024        res4d_branch2b[0][0]             \n",
      "__________________________________________________________________________________________________\n",
      "activation_82 (Activation)      (None, 14, 14, 256)  0           bn4d_branch2b[0][0]              \n",
      "__________________________________________________________________________________________________\n",
      "res4d_branch2c (Conv2D)         (None, 14, 14, 1024) 263168      activation_82[0][0]              \n",
      "__________________________________________________________________________________________________\n",
      "bn4d_branch2c (BatchNormalizati (None, 14, 14, 1024) 4096        res4d_branch2c[0][0]             \n",
      "__________________________________________________________________________________________________\n",
      "add_27 (Add)                    (None, 14, 14, 1024) 0           bn4d_branch2c[0][0]              \n",
      "                                                                 activation_80[0][0]              \n",
      "__________________________________________________________________________________________________\n",
      "activation_83 (Activation)      (None, 14, 14, 1024) 0           add_27[0][0]                     \n",
      "__________________________________________________________________________________________________\n",
      "res4e_branch2a (Conv2D)         (None, 14, 14, 256)  262400      activation_83[0][0]              \n",
      "__________________________________________________________________________________________________\n",
      "bn4e_branch2a (BatchNormalizati (None, 14, 14, 256)  1024        res4e_branch2a[0][0]             \n",
      "__________________________________________________________________________________________________\n",
      "activation_84 (Activation)      (None, 14, 14, 256)  0           bn4e_branch2a[0][0]              \n",
      "__________________________________________________________________________________________________\n",
      "res4e_branch2b (Conv2D)         (None, 14, 14, 256)  590080      activation_84[0][0]              \n",
      "__________________________________________________________________________________________________\n",
      "bn4e_branch2b (BatchNormalizati (None, 14, 14, 256)  1024        res4e_branch2b[0][0]             \n",
      "__________________________________________________________________________________________________\n",
      "activation_85 (Activation)      (None, 14, 14, 256)  0           bn4e_branch2b[0][0]              \n",
      "__________________________________________________________________________________________________\n",
      "res4e_branch2c (Conv2D)         (None, 14, 14, 1024) 263168      activation_85[0][0]              \n",
      "__________________________________________________________________________________________________\n",
      "bn4e_branch2c (BatchNormalizati (None, 14, 14, 1024) 4096        res4e_branch2c[0][0]             \n",
      "__________________________________________________________________________________________________\n",
      "add_28 (Add)                    (None, 14, 14, 1024) 0           bn4e_branch2c[0][0]              \n",
      "                                                                 activation_83[0][0]              \n",
      "__________________________________________________________________________________________________\n",
      "activation_86 (Activation)      (None, 14, 14, 1024) 0           add_28[0][0]                     \n",
      "__________________________________________________________________________________________________\n",
      "res4f_branch2a (Conv2D)         (None, 14, 14, 256)  262400      activation_86[0][0]              \n",
      "__________________________________________________________________________________________________\n",
      "bn4f_branch2a (BatchNormalizati (None, 14, 14, 256)  1024        res4f_branch2a[0][0]             \n",
      "__________________________________________________________________________________________________\n",
      "activation_87 (Activation)      (None, 14, 14, 256)  0           bn4f_branch2a[0][0]              \n",
      "__________________________________________________________________________________________________\n",
      "res4f_branch2b (Conv2D)         (None, 14, 14, 256)  590080      activation_87[0][0]              \n",
      "__________________________________________________________________________________________________\n",
      "bn4f_branch2b (BatchNormalizati (None, 14, 14, 256)  1024        res4f_branch2b[0][0]             \n",
      "__________________________________________________________________________________________________\n",
      "activation_88 (Activation)      (None, 14, 14, 256)  0           bn4f_branch2b[0][0]              \n",
      "__________________________________________________________________________________________________\n",
      "res4f_branch2c (Conv2D)         (None, 14, 14, 1024) 263168      activation_88[0][0]              \n",
      "__________________________________________________________________________________________________\n",
      "bn4f_branch2c (BatchNormalizati (None, 14, 14, 1024) 4096        res4f_branch2c[0][0]             \n",
      "__________________________________________________________________________________________________\n",
      "add_29 (Add)                    (None, 14, 14, 1024) 0           bn4f_branch2c[0][0]              \n",
      "                                                                 activation_86[0][0]              \n",
      "__________________________________________________________________________________________________\n",
      "activation_89 (Activation)      (None, 14, 14, 1024) 0           add_29[0][0]                     \n",
      "__________________________________________________________________________________________________\n",
      "res5a_branch2a (Conv2D)         (None, 7, 7, 512)    524800      activation_89[0][0]              \n",
      "__________________________________________________________________________________________________\n",
      "bn5a_branch2a (BatchNormalizati (None, 7, 7, 512)    2048        res5a_branch2a[0][0]             \n",
      "__________________________________________________________________________________________________\n",
      "activation_90 (Activation)      (None, 7, 7, 512)    0           bn5a_branch2a[0][0]              \n",
      "__________________________________________________________________________________________________\n",
      "res5a_branch2b (Conv2D)         (None, 7, 7, 512)    2359808     activation_90[0][0]              \n",
      "__________________________________________________________________________________________________\n",
      "bn5a_branch2b (BatchNormalizati (None, 7, 7, 512)    2048        res5a_branch2b[0][0]             \n",
      "__________________________________________________________________________________________________\n",
      "activation_91 (Activation)      (None, 7, 7, 512)    0           bn5a_branch2b[0][0]              \n",
      "__________________________________________________________________________________________________\n",
      "res5a_branch2c (Conv2D)         (None, 7, 7, 2048)   1050624     activation_91[0][0]              \n",
      "__________________________________________________________________________________________________\n",
      "res5a_branch1 (Conv2D)          (None, 7, 7, 2048)   2099200     activation_89[0][0]              \n",
      "__________________________________________________________________________________________________\n",
      "bn5a_branch2c (BatchNormalizati (None, 7, 7, 2048)   8192        res5a_branch2c[0][0]             \n",
      "__________________________________________________________________________________________________\n",
      "bn5a_branch1 (BatchNormalizatio (None, 7, 7, 2048)   8192        res5a_branch1[0][0]              \n",
      "__________________________________________________________________________________________________\n",
      "add_30 (Add)                    (None, 7, 7, 2048)   0           bn5a_branch2c[0][0]              \n",
      "                                                                 bn5a_branch1[0][0]               \n",
      "__________________________________________________________________________________________________\n",
      "activation_92 (Activation)      (None, 7, 7, 2048)   0           add_30[0][0]                     \n",
      "__________________________________________________________________________________________________\n",
      "res5b_branch2a (Conv2D)         (None, 7, 7, 512)    1049088     activation_92[0][0]              \n",
      "__________________________________________________________________________________________________\n",
      "bn5b_branch2a (BatchNormalizati (None, 7, 7, 512)    2048        res5b_branch2a[0][0]             \n",
      "__________________________________________________________________________________________________\n",
      "activation_93 (Activation)      (None, 7, 7, 512)    0           bn5b_branch2a[0][0]              \n",
      "__________________________________________________________________________________________________\n",
      "res5b_branch2b (Conv2D)         (None, 7, 7, 512)    2359808     activation_93[0][0]              \n",
      "__________________________________________________________________________________________________\n",
      "bn5b_branch2b (BatchNormalizati (None, 7, 7, 512)    2048        res5b_branch2b[0][0]             \n",
      "__________________________________________________________________________________________________\n",
      "activation_94 (Activation)      (None, 7, 7, 512)    0           bn5b_branch2b[0][0]              \n",
      "__________________________________________________________________________________________________\n",
      "res5b_branch2c (Conv2D)         (None, 7, 7, 2048)   1050624     activation_94[0][0]              \n",
      "__________________________________________________________________________________________________\n",
      "bn5b_branch2c (BatchNormalizati (None, 7, 7, 2048)   8192        res5b_branch2c[0][0]             \n",
      "__________________________________________________________________________________________________\n",
      "add_31 (Add)                    (None, 7, 7, 2048)   0           bn5b_branch2c[0][0]              \n",
      "                                                                 activation_92[0][0]              \n",
      "__________________________________________________________________________________________________\n",
      "activation_95 (Activation)      (None, 7, 7, 2048)   0           add_31[0][0]                     \n",
      "__________________________________________________________________________________________________\n",
      "res5c_branch2a (Conv2D)         (None, 7, 7, 512)    1049088     activation_95[0][0]              \n",
      "__________________________________________________________________________________________________\n",
      "bn5c_branch2a (BatchNormalizati (None, 7, 7, 512)    2048        res5c_branch2a[0][0]             \n",
      "__________________________________________________________________________________________________\n",
      "activation_96 (Activation)      (None, 7, 7, 512)    0           bn5c_branch2a[0][0]              \n",
      "__________________________________________________________________________________________________\n",
      "res5c_branch2b (Conv2D)         (None, 7, 7, 512)    2359808     activation_96[0][0]              \n",
      "__________________________________________________________________________________________________\n",
      "bn5c_branch2b (BatchNormalizati (None, 7, 7, 512)    2048        res5c_branch2b[0][0]             \n",
      "__________________________________________________________________________________________________\n",
      "activation_97 (Activation)      (None, 7, 7, 512)    0           bn5c_branch2b[0][0]              \n",
      "__________________________________________________________________________________________________\n",
      "res5c_branch2c (Conv2D)         (None, 7, 7, 2048)   1050624     activation_97[0][0]              \n",
      "__________________________________________________________________________________________________\n",
      "bn5c_branch2c (BatchNormalizati (None, 7, 7, 2048)   8192        res5c_branch2c[0][0]             \n",
      "__________________________________________________________________________________________________\n",
      "add_32 (Add)                    (None, 7, 7, 2048)   0           bn5c_branch2c[0][0]              \n",
      "                                                                 activation_95[0][0]              \n",
      "__________________________________________________________________________________________________\n",
      "activation_98 (Activation)      (None, 7, 7, 2048)   0           add_32[0][0]                     \n",
      "__________________________________________________________________________________________________\n",
      "flatten_2 (Flatten)             (None, 100352)       0           activation_98[0][0]              \n",
      "==================================================================================================\n",
      "Total params: 23,587,712\n",
      "Trainable params: 23,534,592\n",
      "Non-trainable params: 53,120\n",
      "__________________________________________________________________________________________________\n"
     ]
    },
    {
…
   "cell_type": "code",
   "execution_count": 23,
   "metadata": {
    "colab": {
     "base_uri": "https://localhost:8080/",
     "height": 425
    },
    "colab_type": "code",
    "id": "IWu9N3iRe36j",
    "outputId": "56841876-53e0-4787-cb7e-fec47d9a12e6"
   },
   "outputs": [
    {
     "name": "stdout",
     "output_type": "stream",
     "text": [
      "_________________________________________________________________\n",
      "Layer (type)                 Output Shape              Param #   \n",
      "=================================================================\n",
      "model_2 (Model)              (None, 100352)            23587712  \n",
      "_________________________________________________________________\n",
      "dense_4 (Dense)              (None, 512)               51380736  \n",
      "_________________________________________________________________\n",
      "batch_normalization_3 (Batch (None, 512)               2048      \n",
      "_________________________________________________________________\n",
      "dropout_3 (Dropout)          (None, 512)               0         \n",
      "_________________________________________________________________\n",
      "dense_5 (Dense)              (None, 32)                16416     \n",
      "_________________________________________________________________\n",
      "batch_normalization_4 (Batch (None, 32)                128       \n",
      "_________________________________________________________________\n",
      "dropout_4 (Dropout)          (None, 32)                0         \n",
      "_________________________________________________________________\n",
      "dense_6 (Dense)              (None, 2)                 66        \n",
      "=================================================================\n",
      "Total params: 74,987,106\n",
      "Trainable params: 74,932,898\n",
      "Non-trainable params: 54,208\n",
      "_________________________________________________________________\n"
     ]
    }
   ],
   "source": [
    "model = Sequential()\n",
    "model.add(base_model)\n",
    "model.add(Dense(512, activation='relu', input_dim=train_input_shape, kernel_initializer='he_uniform'))\n",
…
